models/ppo-over-30-episode-307.pth (torch_old, 54393 bytes, 12 tensors)

std f4 [1, 4]
0.802595 0.81890893 0.6714052 0.7112877
00000000: de76 4d3f 04a4 513f 36e1 2b3f f316 363f

network.actor_body.layers.0.weight f4 [64, 33]
0.06817546 0.16955611 0.28368965 0.09426883 -0.13105214 -0.08716612 -0.010640243 0.07524683
0.10061964 0.11683884 0.17567872 0.22012682 0.115946546 0.08648647 -0.0402487 0.22777477
-0.14173372 0.08649188 -0.15188898 -0.1753046 -0.020566933 -0.020713005 0.12555407 0.17088841
0.13652283 -0.050921235 0.13421875 0.13884507 -0.08570615 0.084979974 0.21416055 0.050296992
0.52111566 0.15791109 0.03646791 0.15856113 0.05491787 -0.24913494 -0.03696097 0.26381993
-0.24283978 0.27676627 -0.03388959 -0.05280983 0.16262214 -0.014860355 0.016984107 -3.2434575e-05
-0.11953552 0.062042113 0.07276219 -0.004989413 -0.11671441 -0.1138827 0.1951157 -0.074053936
-0.0544975 -0.079412356 0.1290456 -0.027711468 0.17534573 0.10898866 -0.011114035 -0.008329714
0.12912035 -0.5042993 0.0023076048 -0.025699098 -0.011126972 0.0422987 -0.0109390905 -0.14893977
0.07353341 0.07015351 0.092467405 -0.16020933 0.14573117 -0.16627818 -0.0120457625 -0.0647522
0.20383993 0.010999393 0.08561856 -0.14380458 0.08079006 -0.0992974 0.056435958 -0.10541554
0.047327403 -0.21370943 -0.09773462 0.041836552 0.18306041 -0.15690395 0.14763011 0.13371246
0.094051085 -0.08789953 0.09560988 -0.26792002 0.13587189 -0.26794142 0.007143204 -0.13042302
-0.09498637 -0.09714886 -0.17886955 0.11528714 -0.09200144 -0.14187445 0.02540267 -0.00790631
-0.18535611 -0.13511756 0.21654104 0.19306175 -0.13409518 0.1466172 0.025373973 0.25774205
-0.11561997 -0.113060996 -0.15950882 0.099567175 -0.022638433 -0.025718845 0.16657634 0.20967062
0.15348922 -0.2593027 -0.05037264 0.22788133 -0.0238025 0.28784633 -0.07513856 0.104945295
0.059610516 0.12547696 0.09141374 -0.059136335 -0.0054218653 0.092926346 0.06959721 0.1051875
0.14337637 0.18881448 -0.20636033 0.0014045244 -0.054647706 -0.03103481 -0.037135858 -0.13629095
0.1723484 -0.13427298 0.045608137 -0.026306706 -0.080335304 -0.03610693 -0.12708174 0.06410917
0.12230279 0.1709526 0.016718129 0.021378726 0.16344039 0.1674713 -0.13285749 0.21542174
-0.27635294 -0.16552927 -0.14944705 0.0012527903 -0.06367278 -0.24098967 -0.18245108 0.111023046
0.11603895 0.24507704 0.18393734 -0.21632357 -0.04123951 0.13492413 0.17573042 0.090778396
0.14469643 0.19405131 0.18573765 0.046550162 -0.044229396 0.0712204 -0.0839833 -0.069571525
0.10168116 -0.089268886 0.030474268 0.0041817734 0.11215789 0.14319372 -0.32150146 0.03563005
0.06292702 -0.06442704 -0.09948018 0.060243748 0.18600298 -0.048350345 0.1327935 0.20127733
-0.050001156 0.09882206 -0.07878346 0.16154937 -0.41933715 -0.044221647 0.22574373 0.03345464
-0.08459308 0.08137022 -0.063040584 0.07940953 0.030122506 0.109382704 -0.08132722 -0.017915193
0.111181214 0.14097784 -0.030448372 0.23993443 -0.16588466 -0.16219413 0.3407812 0.30971113
0.007879018 -0.023846908 -0.048826244 0.19782843 0.18402332 0.30210745 -0.09164696 -0.08336309
0.0596849 0.011715358 -0.020738306 0.0513572 -0.096161656 -0.16001888 0.1218994 -0.068768896
-0.053599425 0.13151857 0.02575758 -0.28544113 -0.13543606 -0.109775245 0.11794686 0.074707806
00000000: 939f 8b3d 1ea0 2d3e c53f 913e 0410 c13d
00000010: 8832 06be 2784 b2bd 6a54 2ebc 031b 9a3d
00000020: ab11 ce3d 3449 ef3d 1fe5 333e ed68 613e
00000030: 6275 ed3d d21f b13d d2db 24bd ca3d 693e
00000040: a522 11be a822 b13d c988 1bbe 0d83 33be
00000050: fc7b a8bc 52ae a9bc 3f91 003e 5ffd 2e3e
00000060: a4cc 0b3e c992 50bd a470 093e 672d 0e3e
00000070: b586 afbd fb09 ae3d e74c 5b3e 3804 4e3d
00000080: d667 053f 72b3 213e 605f 153d d95d 223e
00000090: 8ff1 603d 3b1d 7fbe 6364 17bd 6813 873e
000000a0: feaa 78be 4fb4 8d3e d0cf 0abd 1f4f 58bd
000000b0: 6b86 263e d978 73bc 4122 8b3c 5c0a 08b8
000000c0: 0acf f4bd df1f 7e3d 5804 953d 3b7e a3bb
000000d0: f707 efbd 553b e9bd 69cc 473e 97a9 97bd
000000e0: c538 5fbd f2a2 a2bd 8824 043e 2903 e3bc
000000f0: d58d 333e 7235 df3d a417 36bc 5a79 08bc
00000100: 2038 043e c219 01bf 2f3b 173b ea86 d2bc
00000110: e74d 36bc 6741 2d3d df39 33bc ab83 18be
00000120: af98 963d a5ac 8f3d 8d5f bd3d ea0d 24be
00000130: 8d3a 153e d444 2abe 975b 45bc cd9c 84bd
00000140: 6abb 503e cc36 343c c958 af3d 8241 13be
00000150: 4275 a53d 6f5c cbbd 6429 673d 1ae4 d7bd
00000160: 61da 413d a5d6 5abe 1729 c8bd ce5c 2b3d
00000170: 3074 3b3e 6eab 20be 592c 173e ebeb 083e
00000180: db9d c03d ab04 b4bd 1dcf c33d d02c 89be
00000190: 0022 0b3e 9e2f 89be 8a11 ea3b 9d8d 05be
000001a0: 3788 c2bd fbf5 c6bd 9429 37be aa1b ec3d
000001b0: 406b bcbd 8947 11be 4319 d03c 7889 01bc
000001c0: fecd 3dbe 425c 0abe efbc 5d3e fbb1 453e
000001d0: 3f50 09be d222 163e 14dd cf3c c4f6 833e
000001e0: 2aca ecbd 868c e7bd 4856 23be e0e9 cb3d
000001f0: 3c74 b9bc 54b0 d2bc fd92 2a3e e5b3 563e
00000200: 472c 1d3e 53c3 84be 8b53 4ebd b959 693e
00000210: 76fd c2bc 9860 933e 3fe2 99bd 8fed d63d
00000220: 282a 743d 087d 003e 2037 bb3d f138 72bd
00000230: e7a9 b1bb 2b50 be3d fb88 8e3d 8b6c d73d
00000240: 41d1 123e 9558 413e 1f50 53be 0518 b83a
00000250: 46d6 5fbd b73c febc c51b 18bd db8f 0bbe
00000260: 197c 303e db7e 09be 99cf 3a3d 2981 d7bc
00000270: d686 a4bd dce4 13bd b721 02be ab4b 833d
00000280: e379 fa3d 330e 2f3e 75f4 883c 7022 af3c
00000290: eb5c 273e 997d 2b3e cb0b 08be 8497 5c3e
000002a0: 227e 8dbe 8180 29be a608 19be ab34 a43a
000002b0: e066 82bd ffc5 76be 75d4 3abe 0d60 e33d
000002c0: d4a5 ed3d 7af5 7a3e 125a 3c3e ed83 5dbe
000002d0: c3ea 28bd 8d29 0a3e adf2 333e 06ea b93d
000002e0: 4d2b 143e 63b5 463e 0332 3e3e 62ab 3e3d
000002f0: e229 35bd 00dc 913d 70ff abbd 847b 8ebd
00000300: 363e d03d 9bd2 b6bd 2ca5 f93c 4207 893b
00000310: 09b3 e53d 60a1 123e d79b a4be d1f0 113d
00000320: e2df 803d 53f2 83bd 44bc cbbd 26c2 763d
00000330: 9177 3e3e 030b 46bd 05fb 073e a51b 4e3e
00000340: 03ce 4cbd 3863 ca3d 3959 a1bd 336d 253e
00000350: 5cb3 d6be c221 35bd 5d29 673e bc07 093d
00000360: 233f adbd 6ea5 a63d 6c1b 81bd 77a1 a23d
00000370: 79c3 f63c 0a04 e03d e38e a6bd e2c2 92bc
00000380: fab2 e33d 7f5c 103e dd6e f9bc 5fb1 753e
00000390: abdd 29be 3816 26be e07a ae3e 7592 9e3e
000003a0: ff16 013c 975a c3bc 07fe 47bd 8993 4a3e
000003b0: 9c70 3c3e d4ad 9a3e 67b1 bbbd 45ba aabd
000003c0: 2778 743d c6f1 3f3c 61e3 a9bc ed5b 523d
000003d0: 67f0 c4bd fddb 23be 65a6 f93d b5d6 8cbd
000003e0: 128b 5bbd ceac 063e 8f01 d33c 5725 92be
000003f0: c0af 0abe d8d1 e0bd 208e f13d 6800 993d

network.actor_body.layers.0.bias f4 [64]
-0.00025277707 0.0075900853 0.038442217 -0.042447716 -0.055975553 -0.018102126 0.003656335 -0.011757109
0.028201427 -0.0075152144 -0.018910749 0.06334294 0.0014711047 0.063306585 0.043024745 0.032452747
0.05329602 0.0050392114 0.025318103 -0.008392295 0.0013687436 -0.006776504 0.02011729 -0.05065027
0.041494057 -0.038775884 -0.011968318 0.013528422 0.08860794 -0.010988465 0.096993916 -0.02047073
0.08583692 0.08773151 0.046861943 0.123775624 0.0556981 0.17152771 -0.032051835 0.19712555
0.13082284 0.033598125 0.08256209 0.033968445 0.03357015 0.09137025 -0.0056881187 0.09248582
0.037396118 0.10409609 0.0845933 0.027544336 0.00274451 0.02176501 0.028187916 0.06343747
-0.05571243 0.0013629218 -0.022787446 0.048556484 0.09432666 0.030153181 0.059724707 -0.034670807
00000000: 2a87 84b9 40b6 f83b 9675 1d3d a8dd 2dbd
00000010: 9f46 65bd e94a 94bc 1f9f 6f3b e4a0 40bc
00000020: ae06 e73c 3042 f6bb b7ea 9abc f1b9 813d
00000030: 15d2 c03a e2a6 813d b73a 303d 2ced 043d
00000040: ed4c 5a3d f81f a53b e967 cf3c d67f 09bc
00000050: 6a67 b33a 700d debb 04cd a43c a876 4fbd
00000060: acf5 293d 76d3 1ebd c416 44bc 51a6 5d3c
00000070: 1478 b53d f608 34bc bfa4 c63d 3bb2 a7bc
00000080: 44cb af3d 94ac b33d 4ff2 3f3d 137e fd3d
00000090: b123 643d f6a4 2f3e c948 03bd 48db 493e
000000a0: 6cf6 053e 309e 093d 5016 a93d 7f22 0b3d
000000b0: db80 093d 5320 bb3d 6663 babb 3569 bd3d
000000c0: ac2c 193d 5530 d53d 413f ad3d a9a4 e13c
000000d0: 3ddd 333b 894c b23c 58ea e63c 81eb 813d
000000e0: b832 64bd 11a4 b23a bdac babc 2ae3 463d
000000f0: 562e c13d ce03 f73c e5a1 743d fa02 0ebd

network.actor_body.layers.1.weight f4 [64, 64]
-0.04522111 -0.08934377 0.11179772 0.033596687 0.14098385 -0.08009869 -0.14955038 0.15634097
-0.013085246 0.15934955 0.13598032 0.010795166 0.10025075 -0.022881417 0.077789225 0.28087178
-0.2816294 -0.06465471 -0.22896262 0.23930904 0.13124293 -0.17868243 -0.006140829 0.193901
0.24644841 -0.2610359 -0.042738747 0.16394176 -0.031194067 0.28297186 0.054529626 -0.04864116
0.053240176 -0.00031984254 0.011481947 -0.067123115 -0.2617334 -0.18680558 -0.06264675 -0.07081422
-0.017103972 -0.19677742 0.07881926 0.340056 0.02351712 -0.2325471 0.16579647 0.08649853
-0.053643152 0.021340396 -0.24002631 0.024341987 0.2318135 -0.068268515 -0.07583279 0.07727674
0.1227427 -0.03783215 0.20572135 0.0023727939 0.038908154 0.19242507 -0.21571524 -0.08212638
-0.015970748 -0.1265191 -0.13982649 0.08992224 -0.005346619 0.11745943 -0.084039606 -0.22782885
-0.034909707 0.0070689484 -0.15688813 -0.16954972 -0.0846181 -0.12607074 0.14287364 -0.0026020263
0.08323066 -0.02582429 0.09490172 0.17596412 0.15512063 -0.10971469 0.014473396 0.110146336
-0.17374966 -0.26910383 0.13571565 -0.07059464 -0.04873477 0.01863647 -0.022557778 0.1476081
-0.09198994 0.14053605 -0.045256495 0.08844976 0.23276135 -0.14006877 -0.16068076 -0.013575415
0.035578806 0.010094002 0.09778416 -0.04116042 -0.010489503 -0.04930706 0.17653117 0.25481403
0.011539559 0.010512414 -0.15623982 0.1410986 -0.26065838 -0.21247502 0.16142973 -0.04522785
-0.0053254883 0.22659944 0.079052374 0.16286623 0.11450302 0.09214018 0.16653425 0.22362238
-0.10401714 0.041571423 0.030664429 -0.1195825 -0.16818535 0.0160029 -0.11565354 -0.025138376
0.09110674 -0.064201765 -0.03022849 0.121447496 -0.21136445 0.14703514 -0.07147113 -0.039530974
0.21025969 -0.06983414 -0.013856369 -0.025116963 0.0075296033 -0.09446285 -0.13262342 -0.18890649
-0.04394848 -0.12680887 0.020655073 0.13245368 0.24487558 -0.047629096 0.07408821 0.058652777
0.15886764 0.25309846 -0.08530652 0.23168412 0.12596983 0.27523267 0.23415384 0.069201946
0.31654036 0.051859736 0.26867014 -0.17906576 -0.18540797 -0.35793895 0.068071865 -0.3590795
-0.1817009 0.088218614 0.19596584 -0.026593633 -0.1269654 -0.06327971 0.30696395 -0.33906528
-0.1859367 -0.28642398 0.085858345 0.021094836 0.16821456 0.018583266 -0.17476647 -0.046664055
0.05647497 -0.085379176 0.1682068 0.08769998 0.113006845 0.21782295 0.08716277 -0.08879209
0.012095445 -0.1034441 0.19880284 0.13999167 -0.029182488 -0.13008192 0.11175813 0.2606922
0.13040838 0.16101877 0.015046823 -0.119336374 -0.09581355 0.029327244 0.12497795 0.044029884
0.04895619 -0.16674416 0.04389817 0.18865603 -0.13917018 -0.12060878 0.13752146 -0.3262944
0.16512918 -0.094029695 -0.33483362 0.13336985 0.14517665 0.018861508 0.15139158 0.031782962
0.15108816 0.12009839 0.16729642 -0.014757977 -0.10960151 -0.011981268 0.17924128 -0.09713667
0.115617074 -0.012306491 -0.010470041 0.15560716 0.23912618 -0.060516533 0.08235253 -0.023123479
-0.022283137 -0.118886605 0.16380677 -0.27512452 -0.008439444 -0.011878281 -0.20682563 -0.0055450406
00000000: c539 39bd def9 b6bd 34f6 e43d ae9c 093d
00000010: 125e 103e c80a a4bd bc23 19be d917 203e
00000020: 8063 56bc 872c 233e 6d3e 0b3e 35de 303c
00000030: 4450 cd3d cf71 bbbc f54f 9f3d 6dce 8f3e
00000040: bb31 90be b069 84bd 2d75 6abe 6e0d 753e
00000050: 8c64 063e 87f8 36be 0239 c9bb fc8d 463e
00000060: f95c 7c3e 7fa6 85be d30e 2fbd 59e0 273e
00000070: b38a ffbc b0e1 903e 755a 5f3d f43b 47bd
00000080: 5f12 5a3d 8ab0 a7b9 c71e 3c3c d877 89bd
00000090: ec01 86be f649 3fbe f04c 80bd 0c07 91bd
000000a0: a11d 8cbc 0580 49be fe6b a13d d21b ae3e
000000b0: faa6 c03c d420 6ebe 8dc6 293e 2426 b13d
000000c0: ecb8 5bbd 0ed2 ae3c 75c9 75be d968 c73c
000000d0: 8560 6d3e 5dd0 8bbd 394e 9bbd 4443 9e3d
000000e0: 8660 fb3d e2f5 1abd 9ea8 523e e080 1b3b
000000f0: 285e 1f3d 140b 453e 75e4 5cbe e031 a8bd
00000100: 16d5 82bc 398e 01be ad2e 0fbe 2729 b83d
00000110: b132 afbb 928e f03d f51c acbd f74b 69be
00000120: 7bfd 0ebd a3a2 e73b 48a7 20be 719e 2dbe
00000130: 414c adbd b018 01be 784d 123e c286 2abb
00000140: d674 aa3d 768d d3bc d55b c23d f02f 343e
00000150: f1d7 1e3e 18b2 e0bd d321 6d3c 6794 e13d
00000160: 6eeb 31be fac7 89be 0bf9 0a3e ec93 90bd
00000170: 1c9e 47bd 83ab 983c 17cb b8bc 9426 173e
00000180: 3965 bcbd afe8 0f3e e05e 39bd 2625 b53d
00000190: fe58 6e3e 306e 0fbe 7f89 24be 6b6b 5ebc
000001a0: 15bb 113d 5061 253c 1043 c83d d497 28bd
000001b0: 2adc 2bbc 33f6 49bd 96c4 343e fc76 823e
000001c0: 6b10 3d3c 433c 2c3c 55fd 1fbe 277c 103e
000001d0: 0475 85be 0d93 59be d64d 253e d740 39bd
000001e0: 6f81 aebb af09 683e 36e6 a13d 68c6 263e
000001f0: 8f80 ea3d feb3 bc3d f487 2a3e 44fd 643e
00000200: f006 d5bd cc46 2a3d f833 fb3c abe7 f4bd
00000210: c838 2cbe 8418 833c c3db ecbd ffee cdbc
00000220: 2c96 ba3d 377c 83bd bda1 f7bc 77b9 f83d
00000230: ec6f 58be 6190 163e 755f 92bd 3beb 21bd
00000240: 514e 573e 3405 8fbd d305 63bc 17c2 cdbc
00000250: e4ba f63b bd75 c1bd 6fce 07be b470 41be
00000260: 5203 34bd 2fda 01be d434 a93c f0a1 073e
00000270: aac0 7a3e ba16 43bd 8fbb 973d e53d 703d
00000280: 33ae 223e 1f96 813e 2fb5 aebd 9a3e 6d3e
00000290: 3cfe 003e 4ceb 8c3e 06c6 6f3e c0b9 8d3d
000002a0: 9411 a23e e06a 543d 228f 893e 045d 37be
000002b0: 96db 3dbe c643 b7be 4369 8b3d 45d9 b7be
000002c0: cd0f 3abe f6ab b43d 45ab 483e e4da d9bc
000002d0: 3803 02be cb98 81bd 612a 9d3e f799 adbe
000002e0: 3166 3ebe 2aa6 92be 80d6 af3d 14cf ac3c
000002f0: 7040 2c3e ef3b 983c fbf5 32be cf22 3fbd
00000300: 4c52 673d 47db aebd 673e 2c3e 0c9c b33d
00000310: 2270 e73d fb0c 5f3e 6582 b23d a1d8 b5bd
00000320: f92b 463c 80da d3bd f992 4b3e fa59 0f3e
00000330: 1d10 efbc 3234 05be 72e1 e43d 7379 853e
00000340: c689 053e 1be2 243e f386 763c a166 f4bd
00000350: e539 c4bd b03f f03c 70f4 ff3d ae58 343d
00000360: 4986 483d fbbe 2abe 91ce 333d 0c2f 413e
00000370: a182 0ebe bc01 f7bd 6dd2 0c3e 0f10 a7be
00000380: a017 293e a492 c0bd 506f abbe 1b92 083e
00000390: 30a9 143e 7383 9a3c 6506 1b3e da2e 023d
000003a0: dbb6 1a3e 25f6 f53d c14f 2b3e 71cb 71bc
000003b0: c276 e0bd 154d 44bc 078b 373e 97ef c6bd
000003c0: a5c8 ec3d 2aa1 49bc 898a 2bbc 7c57 1f3e
000003d0: 7edd 743e 2fe0 77bd 71a8 a83d 736d bdbc
000003e0: 208b b6bc d27a f3bd f6bc 273e 1fdd 8cbe
000003f0: 9845 0abc 1f9d 42bc 19ca 53be 2cb3 b5bb

network.actor_body.layers.1.bias f4 [64]
-0.0070714396 0.006399924 0.09951024 -0.013166083 0.021643154 0.03910988 0.021242676 0.027860489
-0.006876818 0.01717071 0.018109625 0.0076849125 0.007875977 0.0036044547 0.020252224 -0.007873224
0.019575752 0.060292516 0.066919975 0.07225312 0.023845775 0.024627348 0.07847509 -0.023164717
0.0073510217 0.038754504 -0.014101795 0.013239045 0.025971325 0.020116618 0.018486975 0.0125957625
0.10021587 0.018823862 -0.02798704 0.016121125 0.00990081 -0.0048572444 0.028681466 -0.03479437
-0.0067779454 -0.0034813592 -0.005837505 -0.010224578 0.06515231 -2.7760176e-05 0.010990247 -0.026152011
0.04308821 -0.0099783335 0.029206166 -0.002943043 0.014820627 0.02779838 0.011641024 0.032052502
0.019392863 0.0009705483 -0.0063145477 -0.0073925424 0.008543145 0.0016472945 0.013445089 0.06854971
00000000: 89b7 e7bb 74b6 d13b 06cc cb3d 8eb6 57bc
00000010: fc4c b13c ae31 203d 1f05 ae3c ae3b e43c
00000020: ee56 e1bb 97a9 8c3c a35a 943c b8d1 fb3b
00000030: 3e0a 013c b738 6c3b fee7 a53c b2fe 00bc
00000040: 545d a03c 49f5 763d 570d 893d 72f9 933d
00000050: 3758 c33c 4bbf c93c 8cb7 a03d efc3 bdbc
00000060: d7e0 f03b 0bbd 1e3d 370b 67bc 94e8 583c
00000070: d1c1 d43c 9bcb a43c ff71 973c 755e 4e3c
00000080: fa3d cd3d 8034 9a3c 1445 e5bc 7310 843c
00000090: 0237 223c 8529 9fbb 65f5 ea3c 8b84 0ebd
000000a0: 8719 debb 8427 64bb 8b48 bfbb fd84 27bc
000000b0: 936e 853d 86de e8b7 7010 343c be3c d6bc
000000c0: 437d 303d 2a7c 23bc c541 ef3c 11e0 40bb
000000d0: 37d2 723c 6eb9 e33c feb9 3e3c 7c49 033d
000000e0: c8dd 9e3c 656c 7e3a 44ea cebb 243d f2bb
000000f0: 8cf8 0b3c 08ea d73a ca48 5c3c ca63 8c3d

network.critic_body.layers.0.weight f4 [64, 33]
0.13883556 0.0890695 0.06404962 -0.25654596 0.14974053 -0.15365185 0.24138476 -0.11605368
-0.008091368 0.097941965 0.012427549 0.005260717 -0.035641864 -0.17974465 -0.042783238 -0.12652561
0.009998426 -0.11615816 -0.046188798 -0.06801549 0.063854806 -0.025403714 -0.090990484 -0.023506993
0.009069155 -0.057287976 0.15327749 -0.020651426 0.02829322 -0.15948187 0.164 0.1977425
-1.1545955 -0.13014959 -0.042483084 0.22802335 0.29365328 0.011372927 0.10437065 0.08799707
-0.10681853 0.028139533 -0.00029600185 0.088980556 0.030595217 -0.045022305 0.2401755 0.043055486
-0.18616986 0.20771377 0.15284297 0.0009454893 -0.19810861 -0.018365258 0.026536986 -0.16892733
-0.041035958 -0.021847934 -0.12007382 -0.1717229 -0.24473225 0.02145858 -0.054948725 0.017630018
0.025432691 -0.69864905 0.057087872 -0.13078338 -0.069931574 -0.028552162 -0.040010873 -0.061049074
-0.020826925 0.053982608 -0.19864595 0.063452944 0.065859415 -0.014624892 0.01623953 -0.09744751
0.15845312 0.13617437 -0.061840955 -0.009443784 -0.122016035 -0.16935343 -0.11486858 -0.025153987
-0.11019739 0.107440025 -0.05580208 -0.25071818 0.015455606 -0.05691507 -0.2590865 -0.16742651
0.15479994 -0.03832474 -0.159548 -0.20833848 0.1928011 -0.058693703 0.13040648 0.06471582
0.0009688867 -0.10565416 0.086571604 0.102846794 0.10792512 -0.084252 0.049617525 -0.0026797608
0.0023533262 -0.055309065 0.08040273 0.13310982 0.034128353 -0.22204743 -0.04246281 0.1514256
0.13803896 0.07321113 0.21753496 -0.12659378 -0.10303762 -0.05033971 0.22260337 -0.14724295
-0.05485882 -0.35499772 0.015808899 0.43416375 0.09892517 0.060628146 0.21748096 0.15378024
0.1459189 0.05207681 0.0010143114 0.09654867 -0.054199375 -0.24262004 0.0040812027 -0.0026483661
0.022864472 -0.031738114 0.21389252 0.2988366 0.0337004 0.26088825 0.14287166 -0.17617717
0.003065331 -0.06569174 0.0032892742 0.008903796 0.107863545 0.043786522 0.067390986 -0.1189177
-0.08090316 0.20897122 0.19303143 -0.17305703 0.064516045 -0.012746139 0.04579501 -0.015444579
-0.15438445 -0.21170409 -0.12209539 0.09165346 -0.045979276 -0.110912144 -0.04700289 -0.051907912
-0.014802188 -0.048757754 0.17020541 0.099945545 -0.2461864 0.060682364 0.045098636 -0.010574602
-0.14577456 0.08449701 0.049254913 -0.06374787 0.05000494 0.02729035 0.045017384 0.008869386
0.024425201 -0.16397211 -0.019382238 0.25656906 0.15208162 -0.51486397 -0.1426316 -0.36830777
-0.07184793 0.2111038 -0.07466735 -0.18222794 0.08291751 0.113555156 -0.035345376 0.039186176
0.07068418 -0.09130899 0.12968314 0.08089234 -0.102364816 0.38455242 0.1355935 -0.0028661538
-0.09253627 0.057916164 0.012743429 0.0556387 -0.07811653 -0.10234133 0.045093663 0.23694299
-0.088986054 -0.08739123 0.10676231 0.05003236 0.12270355 0.002105172 -0.01682666 0.1630657
0.12047845 0.02454456 -0.15873025 0.008756315 0.047373217 0.02907269 -0.2832464 -0.07557381
-0.054661665 -0.002843573 0.044240564 -0.11498258 -0.11726195 -0.16650599 0.106572114 0.09079883
0.010552625 -0.23371142 -0.077214286 -0.13037415 0.1469076 -0.09410019 -0.11835457 -0.04810952
00000000: e92a 0e3e 126a b63d 722c 833d fe59 83be
00000010: 9555 193e e956 1dbe 912d 773e 8dad edbd
00000020: a891 04bc cc95 c83d eb9c 4b3c 1862 ac3b
00000030: 34fd 11bd fb0e 38be 7a3d 2fbd ee8f 01be
00000040: 70d0 233c 54e4 edbd 7730 3dbd b54b 8bbd
00000050: 4fc6 823d 731b d0bc 3859 babd bd91 c0bc
00000060: cb96 143c cca6 6abd c6f4 1c3e 2e2d a9bc
00000070: 2fc7 e73c 374f 23be 9eef 273e 037d 4a3e
00000080: c9c9 93bf ef45 05be be02 2ebd f47e 693e
00000090: b959 963e 8355 3a3c 48c0 d53d cf37 b43d
000000a0: acc3 dabd e184 e63c b230 9bb9 703b b63d
000000b0: d2a2 fa3c 4f69 38bd 91f0 753e f35a 303d
000000c0: 50a3 3ebe ebb2 543e de82 1c3e b6da 773a
000000d0: fcdc 4abe bd72 96bc 1864 d93c 49fb 2cbe
000000e0: 5215 28bd 70fa b2bc 43e9 f5bd 21d8 2fbe
000000f0: 179b 7abe e7c9 af3c ea11 61bd d46c 903c
00000100: 3858 d03c aada 32bf f9d4 693d 14ec 05be
00000110: 4938 8fbd 39e6 e9bc 71e2 23bd 980e 7abd
00000120: 3a9d aabc de1c 5d3d d869 4bbe 9ef3 813d
00000130: 4de1 863d 3e9d 6fbc c308 853c 8f92 c7bd
00000140: 8941 223e 4b71 0b3e f14c 7dbd 1aba 1abc
00000150: 8be3 f9bd fc6a 2dbe 3840 ebbd bc0f cebc
00000160: 2baf e1bd 8409 dc3d b990 64bd 225e 80be
00000170: 8339 7d3c c71f 69bd fca6 84be db71 2bbe
00000180: e083 1e3e 67fa 1cbd 8d60 23be af56 55be
00000190: a76d 453e cf68 70bd 4789 053e ba89 843d
000001a0: e3fc 7d3a 3561 d8bd 744c b13d 57a1 d23d
000001b0: d807 dd3d 508c acbd bf3b 4b3d ed9e 2fbb
000001c0: 433a 1a3b c28b 62bd 30aa a43d f14d 083e
000001d0: 2cca 0b3d 6760 63be 7ced 2dbd 500f 1b3e
000001e0: 165a 0d3e b8ef 953d 7cc1 5e3e cda1 01be
000001f0: 6305 d3bd 0331 4ebd 23f2 633e dbc6 16be
00000200: a4b3 60bd 43c2 b5be aa81 813c b64a de3e
00000210: 4899 ca3d 3855 783d 54b3 5e3e 9178 1d3e
00000220: c46b 153e 7e4e 553d a5f2 843a 4fbb c53d
00000230: 2a00 5ebd 6371 78be 9cbb 853b 3690 2dbb
00000240: 464e bb3c d3ff 01bd a406 5b3e 1c01 993e
00000250: 6e09 0a3d 2593 853e f34c 123e ca67 34be
00000260: b8e3 483b 6489 86bd dd90 573b 3ae1 113c
00000270: 90e7 dc3d 7f59 333d 4904 8a3d 208b f3bd
00000280: 8eb0 a5bd 8dfc 553e 08aa 453e dd35 31be
00000290: fd20 843d 2fd5 50bc 8c93 3b3d 420b 7dbc
000002a0: f516 1ebe f5c8 58be 260d fabd cfb4 bb3d
000002b0: c454 3cbd e825 e3bd 1a86 40bd 649d 54bd
000002c0: e084 72bc 36b6 47bd 544a 2e3e 40b0 cc3d
000002d0: 4a18 7cbe 128e 783d 59b9 383d 1841 2dbc
000002e0: ed45 15be c50c ad3d 85bf 493d 3e8e 82bd
000002f0: fbd1 4c3d 0390 df3c 2664 383d e750 113c
00000300: 5c17 c83c 4ee8 27be 80c7 9ebc 055d 833e
00000310: 49bb 1b3e 20ce 03bf 050e 12be d692 bcbe
00000320: 0225 93bd 982b 583e 32eb 98bd f699 3abe
00000330: a8d0 a93d 9b8f e83d 50c6 10bd af81 203d
00000340: dec2 903d 3500 bbbd a8cb 043e e2aa a53d
00000350: a5a4 d1bd 0ee4 c43e 06d9 0a3e 15d6 3bbb
00000360: a883 bdbd 8039 6d3d d1c9 503c 68e5 633d
00000370: 8ffb 9fbd 5598 d1bd 22b4 383d 2fa1 723e
00000380: 523e b6bd 2cfa b2bd 33a6 da3d bbee 4c3d
00000390: 004c fb3d edf6 093b 10d8 89bc b2fa 263e
000003a0: 68bd f63d ac11 c93c 2f8a 22be a676 0f3c
000003b0: 6b0a 423d da29 ee3c ac05 91be 71c6 9abd
000003c0: e9e4 5fbd 3d5b 3abb 9835 353d fd7b ebbd
000003d0: 0927 f0bd 8c80 2abe 7b42 da3d bdf4 b93d
000003e0: ebe4 2c3c 0c52 6fbe 8622 9ebd cd80 05be
000003f0: f26e 163e 9ab7 c0bd e163 f2bd 7d0e 45bd

network.critic_body.layers.0.bias f4 [64]
-0.027643297 0.02966637 0.01134565 -0.0033329853 0.0723312 0.07116897 0.074522406 -0.04868006
-0.0383268 0.03814674 -0.0750111 0.05593324 0.05774827 -0.00015181238 0.012456707 0.047850706
0.054251894 -0.011444666 0.0025495705 0.03360383 0.094010204 0.002799203 -0.111396484 -0.029502451
-0.041774742 -0.0007161653 0.06466416 0.083019055 0.08978014 0.003950817 0.12592047 0.044153277
0.13595931 -0.113443315 0.028009128 0.0039398656 0.060085054 0.080071405 -0.094237015 0.073502526
-0.026391363 0.08719934 0.122195 -0.05736649 0.12814319 0.06459042 -0.069221504 -0.10014217
0.0777843 -0.04010418 0.042522147 -0.08495302 -0.00059714774 -0.05867739 -0.01957372 -0.111889996
-0.039945554 -0.057922203 0.04879599 0.080451995 0.06492893 0.024637206 0.057580665 0.003976449
00000000: 3274 e2bc e306 f33c 1be3 393c 376e 5abb
00000010: 6122 943d 09c1 913d 349f 983d be64 47bd
00000020: 90fc 1cbd c23f 1c3d 6b9f 99bd 411a 653d
00000030: 7389 6c3d d32f 1fb9 3717 4c3c 1aff 433d
00000040: 3c37 5e3d 6982 3bbc b216 273b 2ba4 093d
00000050: 6c88 c03d d572 373b d723 e4bd 20af f1bc
00000060: fe1b 2bbd 0abd 3bba a56e 843d e505 aa3d
00000070: a6de b73d db75 813b 4cf1 003e 11da 343d
00000080: eb38 0b3e f854 e8bd 6673 e53c fd19 813b
00000090: bf1b 763d 7afc a33d 56ff c0bd 7e88 963d
000000a0: b332 d8bc 9195 b23d 5f41 fa3d 20f9 6abd
000000b0: f837 033e fb47 843d 01c4 8dbd 5717 cdbd
000000c0: 604d 9f3d 4844 24bd b42b 2e3d d9fb adbd
000000d0: e889 1cba b457 70bd 1159 a0bc 9526 e5bd
000000e0: f39d 23bd d53f 6dbd 4ede 473d 04c4 a43d
000000f0: 75f9 843d f7d3 c93c b4d9 6b3d df4c 823b

network.critic_body.layers.1.weight f4 [64, 64]
0.1625607 0.064096086 -0.08209449 -0.16757643 0.07860023 -0.13420145 -0.002290027 -0.18546417
0.06664522 0.2934181 0.21108563 -0.09440952 0.15965037 0.058628876 -0.06824495 -0.2560221
-0.040771153 -0.16358805 0.040757388 0.019908939 -0.048177633 -0.12425126 -0.13791175 0.0474877
-0.16940941 0.21558447 -0.020975677 -0.021061206 0.080437064 -0.020436838 -0.09216263 -0.19081822
0.026786987 -0.1162798 0.043973617 -0.089366704 -0.17077442 0.049626336 -0.29552013 -0.10175741
0.0058965404 -0.059115574 -0.298606 -0.30464885 -0.29834595 0.2733042 -0.047407992 -0.096862555
0.053458236 -0.037971895 0.055439077 0.3443291 0.18741652 -0.024499109 0.31785166 -0.07044024
0.12917246 -0.19021894 -0.019101936 0.091514654 -0.13193566 -0.07143172 -0.03856178 0.09218222
0.07726619 0.15052207 0.13258623 0.18604179 0.13289088 0.07047109 -0.07231766 -0.18287538
-0.07476856 -0.22639748 -0.13082297 0.010412999 -0.044950116 -0.010619753 0.105461635 0.09175277
-0.12907198 -0.15078601 0.20586239 -0.07317353 0.030927075 0.04419397 0.079510465 -0.33006778
0.016253877 -0.32695276 0.1698449 -0.0003735548 -0.128426 0.252869 -0.00783453 0.05149466
0.13962848 0.038326003 -0.048953734 -0.05286908 0.094412446 0.014732325 -0.110517696 -0.08801875
-0.05084486 0.16035503 0.011847688 -0.07378826 -0.063389875 -0.21796739 0.15138605 -0.18749906
0.02071672 -0.08225849 -0.04411991 -0.39435124 -0.15803504 -0.13915135 0.20651111 0.061753087
-0.14162332 -0.1181467 -0.25189257 -0.0688071 0.06340121 -0.049892437 -0.10897427 0.13071768
-0.16541532 0.110149615 -0.005985294 -0.037171695 0.06622552 0.0034989938 -0.10969575 -0.061854586
-0.040582664 0.36554152 0.08740962 0.12442895 0.17689551 -0.057639908 0.008994232 0.071871296
0.22773035 0.0016672097 0.030044453 -0.008561696 -0.15153806 -0.15974645 -0.11017734 -0.0041502817
-0.0019462099 0.03927328 -0.014728008 0.201404 0.20088008 -0.07027298 0.0829894 0.001083962
-0.061444543 0.05193111 -0.19625849 -0.17677143 -0.13955097 -0.11700488 -0.07746581 0.06925745
-0.047764264 0.18193722 -0.08258419 -0.10182266 0.22159854 -0.19809324 -0.114636034 -0.05837824
0.03671523 -0.011157367 -0.02944724 -0.21684763 0.10460591 0.23076716 0.16187707 -0.23378532
0.1340344 0.20535271 -0.061076734 0.028677858 -0.04210824 0.28546685 0.07253341 0.0022417125
-0.17846802 -0.035620738 -0.02123257 0.18762772 0.016751722 -0.025433596 0.18759157 0.15165763
0.11765248 -0.008107154 0.25621822 -0.07552222 -0.25236642 0.072341554 0.021233616 -0.010951978
0.02064735 0.2713857 -0.01595879 -0.23659302 -0.012225508 -0.045195643 -0.04006329 0.0031334732
-0.15344308 0.11224801 0.18680933 0.08973385 -0.28512353 0.021191144 0.23412937 -0.047091678
-0.038159806 0.15306655 -0.06245932 0.077792935 -0.11165824 0.27378994 -0.063929155 0.055705465
0.14387114 -0.13505995 0.23815231 -0.052455 -0.0064884457 -0.02076379 -0.0400922 0.028061895
-0.0053952704 -0.03689712 -0.2169846 0.020471845 -0.029191313 0.0020080414 0.009613512 0.03210113
-0.2225611 0.15174846 0.023013342 0.05732958 -0.19051272 -0.23567718 0.022727458 0.033300966
00000000: 5076 263e cf44 833d 2821 a8bd 2899 2bbe
00000010: 28f9 a03d 1b6c 09be 4714 16bb 52ea 3dbe
00000020: 4a7d 883d e63a 963e d526 583e c759 c1bd
00000030: 637b 233e d524 703d 02c4 8bbd 5415 83be
00000040: a7ff 26bd a083 27be 38f1 263d 1218 a33c
00000050: e955 45bd 7277 febd bd38 0dbe 7682 423d
00000060: a979 2dbe 2dc2 5c3e 2fd5 abbc 8d88 acbc
00000070: 30bc a43d 286b a7bc c3bf bcbd da65 43be
00000080: 6270 db3c 1b24 eebd ae1d 343d e405 b7bd
00000090: 7ddf 2ebe fc44 4b3d 6a4e 97be 3066 d0bd
000000a0: c437 c13b 2c23 72bd e3e2 98be effa 9bbe
000000b0: cdc0 98be 87ee 8b3e e22e 42bd e05f c6bd
000000c0: 06f7 5a3d 6b88 1bbd 1614 633d e74b b03e
000000d0: 1eea 3f3e 5bb2 c8bc 74bd a23e f942 90bd
000000e0: c945 043e c1c8 42be aa7b 9cbc 096c bb3d
000000f0: 241a 07be cb4a 92bd f5f2 1dbd 08ca bc3d
00000100: bc3d 9e3d 7522 1a3e afc4 073e bd81 3e3e
00000110: 8c14 083e 2653 903d 481b 94bd af43 3bbe
00000120: 4220 99bd bed4 67be 75f6 05be 499b 2a3c
00000130: 9d1d 38bd 79fe 2dbc 45fc d73d e0e8 bb3d
00000140: 722b 04be a667 1abe 97cd 523e 01dc 95bd
00000150: c75a fd3c bc04 353d 62d6 a23d a5fe a8be
00000160: da26 853c 5a66 a7be d2eb 2d3e add9 c3b9
00000170: 1b82 03be 0c78 813e 675c 00bc 11ec 523d
00000180: c5fa 0e3e bafb 1c3d b683 48bd 408d 58bd
00000190: 505b c13d da5f 713c 1a57 e2bd 2d43 b4bd
000001a0: b342 50bd 1c34 243e ce1c 423c 4d1e 97bd
000001b0: 8dd2 81bd d832 5fbe f204 1b3e c1ff 3fbe
000001c0: 1cb6 a93c 2477 a8bd 14b7 34bd 68e8 c9be
000001d0: f0d3 21be b17d 0ebe a677 533e cef0 7c3d
000001e0: b405 11be e6f6 f1bd 10f8 80be bdea 8cbd
000001f0: 7ed8 813d 035c 4cbd e72d dfbd dbda 053e
00000200: a262 29be 1f96 e13d 4920 c4bb 5941 18bd
00000210: 3fa1 873d 604f 653b 2aa8 e0bd 3c5b 7dbd
00000220: 023a 26bd 4228 bb3e d103 b33d 9bd4 fe3d
00000230: 1924 353e d317 6cbd 8b5c 133c 4231 933d
00000240: 2532 693e 4686 da3a c91f f63c 5b46 0cbc
00000250: cb2c 1bbe 9394 23be a8a4 e1bd 16ff 87bb
00000260: f817 ffba 05dd 203d be4d 71bc da3c 4e3e
00000270: 82b3 4d3e 48eb 8fbd 59f6 a93d bb13 8e3a
00000280: 46ad 7bbd b7b5 543d fcf7 48be 9203 35be
00000290: 73e6 0ebe 41a0 efbd 65a6 9ebd dad6 8d3d
000002a0: 76a4 43bd c04d 3a3e e621 a9bd 6688 d0bd
000002b0: baea 623e f4d8 4abe 4cc6 eabd 051e 6fbd
000002c0: b662 163d 64cd 36bc 573b f1bc 4e0d 5ebe
000002d0: a03b d63d 3a4e 6c3e 1ac3 253e 6b65 6fbe
000002e0: 5040 093e fb47 523e 992b 7abd d4ed ea3c
000002f0: b179 2cbd b628 923e 658c 943d b2e9 123b
00000300: 52c0 36be 0de7 11bd edef adbc 7b21 403e
00000310: e83a 893c 1e5a d0bc 0118 403e 234c 1b3e
00000320: c9f3 f03d ded3 04bc 092f 833e 65ab 9abd
00000330: 2c36 81be cf27 943d 1ff2 ad3c ed6f 33bc
00000340: a224 a93c 11f3 8a3e 02bc 82bc 7145 72be
00000350: 7f4d 48bc 111f 39bd 6819 24bd f55a 4d3b
00000360: 2f20 1dbe 49e2 e53d f24a 3f3e 61c6 b73d
00000370: b6fb 91be 0d99 ad3c 9cbf 6f3e 34e3 40bd
00000380: 754d 1cbd 7abd 1c3e 58d5 7fbd e751 9f3d
00000390: 13ad e4bd 322e 8c3e 4aed 82bd 6a2b 643d
000003a0: f552 133e 284d 0abe 33de 733e 0edb 56bd
000003b0: 079d d4bb d318 aabc b837 24bd 0fe2 e53c
000003c0: cfca b0bb 6f21 17bd 3631 5ebe 92b4 a73c
000003d0: 9f22 efbc 5899 033b fe81 1d3c 797c 033d
000003e0: 0fe7 63be f363 1b3e 7a86 bc3c 6cd2 6a3d
000003f0: c415 43be 5c55 71be ef2e ba3c 9866 083d

network.critic_body.layers.1.bias f4 [64]
-0.092203125 -0.061186433 0.11809554 0.0846737 -0.050533235 0.080750406 -0.07317405 0.06537032
-0.034572247 0.05353757 0.11307668 0.09693047 0.09422011 0.18382995 -0.06649245 0.10700709
-0.061638705 -0.13320565 -0.07526491 0.06560453 -0.047183488 0.06050119 0.072493665 0.08867837
-0.078919806 0.08539288 -0.047314774 -0.07220034 -0.11565102 -0.060828403 -0.0012097452 0.11288282
-0.10489945 0.07924082 0.07521881 -0.027125288 0.14190169 -0.096703224 0.0010411493 -0.07626869
0.038562622 0.06559836 0.11500257 -0.058604382 -0.07341382 0.14125204 0.028789535 0.12076904
0.02040393 -0.021355407 0.18988763 0.09929036 0.12352358 0.10817712 -0.07214376 -0.013982653
0.14174367 -0.03249596 0.1253586 -0.037892718 0.05152267 0.18400824 -0.045350242 0.121407576
00000000: fed4 bcbd a09e 7abd 13dc f13d 6869 ad3d
00000010: f0fb 4ebd 7860 a53d 47dc 95bd e0e0 853d
00000020: a19b 0dbd 364a 5b3d bf94 e73d 7b83 c63d
00000030: 79f6 c03d eb3d 3c3e 322d 88bd 8826 db3d
00000040: de78 7cbd 1067 08be 7d24 9abd ab5b 863d
00000050: 7943 41bd 19d0 773d 8f77 943d 019d b53d
00000060: b5a0 a1bd 76e2 ae3d 23cd 41bd c6dd 93bd
00000070: 71da ecbd 3427 79bd 5090 9eba 1c2f e73d
00000080: 86d5 d6bd 0349 a23d 520c 9a3d da35 debc
00000090: ad4e 113e 570c c6bd 2c77 883a c232 9cbd
000000a0: d7f3 1d3d 6f58 863d 7886 eb3d 260b 70bd
000000b0: fc59 96bd 60a4 103e 08d8 eb3c c255 f73d
000000c0: 2526 a73c 89f1 aebc e771 423e bf58 cb3d
000000d0: eef9 fc3d f78b dd3d 1cc0 93bd 7f17 65bc
000000e0: 4125 113e 7c1a 05bd 015e 003e 6535 1bbd
000000f0: 6f09 533d a86c 3c3e 2dc1 39bd 89a4 f83d

network.fc_action.weight f4 [4, 64]
-0.030805195 0.07082274 -0.013160121 -0.0850555 -0.04138251 -0.035381466 -0.0717813 0.11482655
0.029493196 0.010114426 0.081983894 0.052591182 0.08976582 0.024982058 -0.13758914 0.04794162
0.08384694 0.016724328 0.049925957 -0.05525778 0.08689402 0.083226144 0.03524937 -0.026137453
0.010393785 -0.04495308 0.039719027 -0.08986328 -0.016594235 0.085072614 0.092885904 -0.019350952
0.020506352 0.043183204 -0.022551164 -0.05635 0.15339324 -0.05324025 0.05453248 -0.04150396
0.060512736 0.06281162 -0.057969917 0.0009790882 -0.060213998 -0.10076335 -0.037626278 0.05954257
-0.04418031 -0.01638253 0.05398408 -0.0935234 -0.07001044 0.0849314 -0.039918035 0.08171358
-0.052734774 -0.13140514 -0.009428851 -0.051330585 0.027295318 -0.028459469 -0.03866951 0.004280875
-0.06433177 0.032752167 0.054385837 -0.054828532 0.11093124 0.0050491276 0.0821805 -0.029653944
-0.05545276 -0.10993514 0.0870767 0.121199004 0.04530241 -0.0144600645 0.1445766 -0.0012656687
0.05910322 -0.06627183 -0.076148555 0.019352244 0.032360904 0.05514235 -0.061203472 -0.063014984
0.05609502 -0.12255513 -0.00073407905 -0.10450534 0.035249513 -0.02072118 0.062832415 -0.14665008
0.1242608 0.118089855 0.025753701 -0.05849415 -0.037068862 0.0012037694 -0.053186912 -0.014642371
0.01138274 0.00431753 0.06014769 -0.009514557 0.0046704975 0.04682558 -0.048593044 -0.020698559
0.00514142 -0.0072673503 -0.0383071 0.035924423 0.021034356 0.0015681206 0.10990253 0.033134248
-0.018484782 -0.0073087225 0.007093498 -0.042692605 0.057897393 -0.017650135 0.09133331 -0.072228596
-0.090531744 -0.008387512 0.26613903 0.047034666 0.034606963 -0.16317521 -0.018391695 -0.010754417
-0.07027486 0.077583246 -0.22136255 -0.09930096 -0.012281048 0.021142151 0.17182326 0.14999701
-0.097958215 0.016407428 0.070202366 0.22329196 0.07115431 0.0016857436 -0.1604693 -0.018119728
-0.06029912 0.14728457 0.14836548 0.12104387 0.007185436 0.06608638 0.058025084 -0.04125422
-0.0017976561 -0.02857877 -0.115695246 -0.12655546 -0.13796398 -0.0065887766 -0.14157374 0.15330972
-0.026614584 0.06868297 0.11462267 0.011230484 -0.11010406 -0.010962552 -0.07106821 0.06618152
0.09399293 0.025879862 0.009316064 0.097019635 -0.065369196 -0.05148394 0.1304238 -0.13274054
-0.04467402 -0.043079033 0.15462492 0.022443086 -0.15697603 -0.017170077 -0.025315626 -0.13310397
0.01652423 -0.0126836 -0.16265807 -0.0032816695 0.036936786 -0.027783014 -0.15313147 -0.032235984
0.06695873 -0.1326436 -0.0820147 -0.06242577 0.15179199 -0.123943925 -0.004123096 -0.035878062
-0.106887825 0.10666062 0.1812459 0.06691455 -0.06016373 0.10462273 0.16643865 -0.07142309
0.058180023 0.014620425 0.04607921 0.15753073 0.0814027 0.04947257 -0.012034514 0.014327339
-0.31899706 -0.06647215 0.0195693 0.022363687 -0.021906812 -0.10438032 -0.024709396 -0.012921751
-0.05255338 0.0076168533 -0.05800257 -0.12280906 0.1101547 -0.0564881 -0.040976133 -0.042109825
-0.14865303 -0.116671115 -0.116928175 0.07285617 -0.020766182 0.12707672 0.1096394 -0.059197128
0.11196088 -0.017253673 0.019234003 -0.055127494 -0.0010654164 -0.031363368 0.080325685 0.07474946
00000000: 2d5b fcbc 830b 913d 8c9d 57bc 9431 aebd
00000010: b580 29bd 28ec 10bd 1302 93bd 2f2a eb3d
00000020: b79b f13c fab6 253c 2ce7 a73d da69 573d
00000030: 24d7 b73d 2ca7 cc3c 2be4 0cbe 6f5e 443d
00000040: f2b7 ab3d 7501 893c 297f 4c3d fb55 62bd
00000050: 7ef5 b13d 7872 aa3d a561 103d 361e d6bc
00000060: b24a 2a3c b920 38bd 6bb0 223d 3d0a b8bd
00000070: a2f0 87bc 8d3a ae3d f73a be3d e385 9ebc
00000080: f0fc a73c dfe0 303d 38bd b8bc 42cf 66bd
00000090: 1e13 1d3e 7312 5abd 735d 5f3d 0e00 2abd
000000a0: 34dc 773d 61a3 803d dd71 6dbd c054 803a
000000b0: f4a2 76bd 045d cebd 031e 1abd e9e2 733d
000000c0: 6af6 34bd a834 86bc 691e 5d3d 3289 bfbd
000000d0: a261 8fbd 84f0 ad3d 1881 23bd 7359 a73d
000000e0: 6b00 58bd 128f 06be 787b 1abc 0540 52bd
000000f0: 6e9a df3c d523 e9bc ec63 1ebd 9546 8c3b
00000100: 60c0 83bd 2327 063d afc3 5e3d e293 60bd
00000110: eb2f e33d 2773 a53b 404e a83d d4ec f2bc
00000120: 6f22 63bd ad25 e1bd 4555 b23d 2f37 f83d
00000130: 058f 393d e8e9 6cbc e30b 143e cbe4 a5ba
00000140: 3816 723d 86b9 87bd c6f3 9bbd 9988 9e3c
00000150: de8c 043d f2dc 613d 7eb0 7abd 000e 81bd
00000160: e4c3 653d 2ffe fabd 366f 40ba e506 d6bd
00000170: cb61 103d 77bf a9bc 48ae 803d 702b 16be
00000180: 727c fe3d 18d9 f13d 6df9 d23c 9097 6fbd
00000190: 85d5 17bd ccc7 9d3a 85da 59bd 8ee6 6fbc
000001a0: ac7e 3a3c 117a 8d3b 6d5d 763d f2e2 1bbc
000001b0: f90a 993b 2ecc 3f3d 8009 47bd 0690 a9bc
000001c0: 5b79 a83b f422 eebb e8e7 1cbd 7d25 133d
000001d0: 3e50 ac3c 6589 cd3a 9414 e13d c7b7 073d
000001e0: 666d 97bc 027e efbb 9370 e83b 71de 2ebd
000001f0: d125 6d3d 0497 90bc f50c bb3d 96ec 93bd
00000200: b568 b9bd c66b 09bc 6043 883e 6ca7 403d
00000210: 08c0 0d3d 6717 27be 2eaa 96bc 4b33 30bc
00000220: 44ec 8fbd f7e3 9e3d ddac 62be 4d5e cbbd
00000230: 7336 49bc 4e32 ad3c 70f2 2f3e d198 193e
00000240: 519e c8bd df68 863c 42c6 8f3d a6a6 643e
00000250: 5ab9 913d 2bf4 dc3a 1052 24be d36f 94bc
00000260: 36fc 76bd c4d1 163e 1fed 173e d9e5 f73d
00000270: ce73 eb3b 4c58 873d b6ab 6d3d 2ffa 28bd
00000280: 549f ebba 061e eabc a1f1 ecbd c197 01be
00000290: 6e46 0dbe aae6 d7bb b5f8 10be 39fd 1c3e
000002a0: d406 dabc a8a9 8c3d 4abf ea3d 1000 383c
000002b0: 3d7e e1bd 479c 33bc 368c 91bd 2d8a 873d
000002c0: 5e7f c03d 0102 d43c 68a2 183c 3bb2 c63d
000002d0: 49e0 85bd d3e0 52bd d18d 053e 23ed 07be
000002e0: 1bfc 36bd a473 30bd ff55 1e3e 90da b73c
000002f0: 53be 20be 43a8 8cbc b762 cfbc 684c 08be
00000300: d25d 873c e0ce 4fbc d68f 26be 4711 57bb
00000310: 074b 173d 3499 e3bc 7fce 1cbe e109 04bd
00000320: a921 893d b9d3 07be 53f7 a7bd 2ab2 7fbd
00000330: 5c6f 1b3e 50d6 fdbd 091b 87bb e0f4 12bd
00000340: 01e8 dabd e270 da3d 8698 393e 7f0a 893d
00000350: 3e6e 76bd 7144 d63d e56e 2a3e 4546 92bd
00000360: 2d4e 6e3d 828a 6f3c 8ebd 3c3d bc4f 213e
00000370: 75b6 a63d c0a3 4a3d 692c 45bc 37bd 6a3c
00000380: 9553 a3be 8d22 88bd cc4f a03c 0d34 b73c
00000390: ea75 b3bc 59c5 d5bd 5c6b cabc c0b5 53bc
000003a0: 3742 57bd cc96 f93b 1a94 6dbd 5183 fbbd
000003b0: ca98 e13d 1160 67bd 97d6 27bd 5a7b 2cbd
000003c0: 8038 18be 44f1 eebd 0a78 efbd 9e35 953d
000003d0: d71d aabc 6620 023e 9f8a e03d b078 72bd
000003e0: bf4b e53d 9357 8dbc a190 9d3c 5ecd 61bd
000003f0: 71a5 8bba e076 00bd cb81 a43d 3f16 993d

network.fc_action.bias f4 [4]
-0.0017366023 -0.026601799 0.0014929075 0.018912448
00000000: b49e e3ba 04ec d9bc aaad c33a 47ee 9a3c

network.fc_critic.weight f4 [1, 64]
-0.09816289 -0.04150922 0.057403497 0.051169354 -0.08429014 0.05370169 -0.12409599 0.04995766
-0.053871658 0.07612746 0.051138036 0.06530139 0.09065001 0.07189948 -0.069013625 0.036198597
-0.36666343 -0.10393263 -0.03336141 0.11598323 -0.012511905 0.07847872 0.06661398 0.086631544
-0.08712545 0.12236915 -0.006353869 -0.10460916 -0.13451281 -0.14581615 -0.01834498 0.041140802
-0.1432872 0.1628208 0.11781405 -0.0652513 0.081248045 -0.11558164 0.084774345 -0.05869445
0.03873674 0.27200082 0.04492901 -0.007556792 -0.08753021 0.067270294 0.20660535 0.11220851
0.09331235 -0.04849332 0.087095365 0.051568493 0.073103875 0.05915515 -0.15634193 -0.03602269
0.077620395 -0.022710303 0.062122144 -0.035893634 0.35278717 0.065194085 -0.08974176 0.0518394
00000000: a009 c9bd 9205 2abd ee1f 6b3d f596 513d
00000010: 4fa0 acbd 4ef6 5b3d 0a26 febd 67a0 4c3d
00000020: 87a8 5cbd b7e8 9b3d 1e76 513d bcbc 853d
00000030: b6a6 b93d 0940 933d 0457 8dbd fb44 143d
00000040: 4fbb bbbe a1da d4bd f9a5 08bd 9e88 ed3d
00000050: bcfe 4cbc 73b9 a03d e96c 883d e16b b13d
00000060: d46e b2bd ad9c fa3d 1e34 d0bb 543d d6bd
00000070: babd 09be d450 15be 3648 96bc 4283 283d
00000080: e1b9 12be 7fba 263e 7e48 f13d 79a2 85bd
00000090: 6065 a63d 11b6 ecbd 2c9e ad3d 9769 70bd
000000a0: 6aaa 1e3d b143 8b3e 7b07 383d f79e f7bb
000000b0: 0a43 b3bd 02c5 893d 5a90 533e 93cd e53d
000000c0: 8c1a bf3d eea0 46bd 0e5f b23d 7c39 533d
000000d0: 7cb7 953d ac4c 723d 1918 20be 878c 13bd
000000e0: 71f7 9e3d f50a babc ca73 7e3d 3405 13bd
000000f0: 85a0 b43e 7a84 853d 87ca b7bd 8d55 543d
